…
img_bev_encoder_neck.up_sample.1.1.weight - torch.Size([192]): 
The value is the same before and after calling `init_weights` of spotocc  

img_bev_encoder_neck.up_sample.1.1.bias - torch.Size([192]): 
The value is the same before and after calling `init_weights` of spotocc  
2025-08-28 15:35:36,835 - mmdet - INFO - Model:
spotocc(
  (pts_bbox_head): SparseProtoMask2FormerOccHead(
    (transformer_decoder): DetrTransformerDecoder(
      (layers): ModuleList(
        (0): SparseProtoTransformerDecoderLayer_0(
          (pem_cross_attn): SPOT_CA_0(
            (key_proj): Sequential(
              (0): LayerNorm((192,), eps=1e-05, elementwise_affine=True)
              (1): Linear(in_features=192, out_features=192, bias=True)
            )
            (query_proj): Sequential(
              (0): LayerNorm((192,), eps=1e-05, elementwise_affine=True)
              (1): Linear(in_features=192, out_features=192, bias=True)
            )
            (proj): Linear(in_features=192, out_features=192, bias=True)
            (final): Linear(in_features=192, out_features=192, bias=True)
            (dropout): Dropout(p=0.0, inplace=False)
          )
          (self_attn): MultiheadAttention(
            (attn): MultiheadAttention(
              (out_proj): NonDynamicallyQuantizableLinear(in_features=192, out_features=192, bias=True)
            )
            (proj_drop): Dropout(p=0.0, inplace=False)
            (dropout_layer): Dropout(p=0.0, inplace=False)
          )
          (ffn): FFN(
            (activate): ReLU(inplace=True)
            (layers): Sequential(
              (0): Sequential(
                (0): Linear(in_features=192, out_features=1536, bias=True)
                (1): ReLU(inplace=True)
                (2): Dropout(p=0.0, inplace=False)
              )
              (1): Linear(in_features=1536, out_features=192, bias=True)
              (2): Dropout(p=0.0, inplace=False)
            )
            (dropout_layer): Identity()
          )
          (norms): ModuleList(
            (0): LayerNorm((192,), eps=1e-05, elementwise_affine=True)
            (1): LayerNorm((192,), eps=1e-05, elementwise_affine=True)
            (2): LayerNorm((192,), eps=1e-05, elementwise_affine=True)
          )
        )
        (1): SparseProtoTransformerDecoderLayer_0(
          (pem_cross_attn): SPOT_CA_0(
            (key_proj): Sequential(
              (0): LayerNorm((192,), eps=1e-05, elementwise_affine=True)
              (1): Linear(in_features=192, out_features=192, bias=True)
            )
            (query_proj): Sequential(
              (0): LayerNorm((192,), eps=1e-05, elementwise_affine=True)
              (1): Linear(in_features=192, out_features=192, bias=True)
            )
            (proj): Linear(in_features=192, out_features=192, bias=True)
            (final): Linear(in_features=192, out_features=192, bias=True)
            (dropout): Dropout(p=0.0, inplace=False)
          )
          (self_attn): MultiheadAttention(
            (attn): MultiheadAttention(
              (out_proj): NonDynamicallyQuantizableLinear(in_features=192, out_features=192, bias=True)
            )
            (proj_drop): Dropout(p=0.0, inplace=False)
            (dropout_layer): Dropout(p=0.0, inplace=False)
          )
          (ffn): FFN(
            (activate): ReLU(inplace=True)
            (layers): Sequential(
              (0): Sequential(
                (0): Linear(in_features=192, out_features=1536, bias=True)
                (1): ReLU(inplace=True)
                (2): Dropout(p=0.0, inplace=False)
              )
              (1): Linear(in_features=1536, out_features=192, bias=True)
              (2): Dropout(p=0.0, inplace=False)
            )
            (dropout_layer): Identity()
          )
          (norms): ModuleList(
            (0): LayerNorm((192,), eps=1e-05, elementwise_affine=True)
            (1): LayerNorm((192,), eps=1e-05, elementwise_affine=True)
            (2): LayerNorm((192,), eps=1e-05, elementwise_affine=True)
          )
        )
        (2): SparseProtoTransformerDecoderLayer_0(
          (pem_cross_attn): SPOT_CA_0(
            (key_proj): Sequential(
              (0): LayerNorm((192,), eps=1e-05, elementwise_affine=True)
              (1): Linear(in_features=192, out_features=192, bias=True)
            )
            (query_proj): Sequential(
              (0): LayerNorm((192,), eps=1e-05, elementwise_affine=True)
              (1): Linear(in_features=192, out_features=192, bias=True)
            )
            (proj): Linear(in_features=192, out_features=192, bias=True)
            (final): Linear(in_features=192, out_features=192, bias=True)
            (dropout): Dropout(p=0.0, inplace=False)
          )
          (self_attn): MultiheadAttention(
            (attn): MultiheadAttention(
              (out_proj): NonDynamicallyQuantizableLinear(in_features=192, out_features=192, bias=True)
            )
            (proj_drop): Dropout(p=0.0, inplace=False)
            (dropout_layer): Dropout(p=0.0, inplace=False)
          )
          (ffn): FFN(
            (activate): ReLU(inplace=True)
            (layers): Sequential(
              (0): Sequential(
                (0): Linear(in_features=192, out_features=1536, bias=True)
                (1): ReLU(inplace=True)
                (2): Dropout(p=0.0, inplace=False)
              )
              (1): Linear(in_features=1536, out_features=192, bias=True)
              (2): Dropout(p=0.0, inplace=False)
            )
            (dropout_layer): Identity()
          )
          (norms): ModuleList(
            (0): LayerNorm((192,), eps=1e-05, elementwise_affine=True)
            (1): LayerNorm((192,), eps=1e-05, elementwise_affine=True)
            (2): LayerNorm((192,), eps=1e-05, elementwise_affine=True)
          )
        )
        (3): SparseProtoTransformerDecoderLayer_0(
          (pem_cross_attn): SPOT_CA_0(
            (key_proj): Sequential(
              (0): LayerNorm((192,), eps=1e-05, elementwise_affine=True)
              (1): Linear(in_features=192, out_features=192, bias=True)
            )
            (query_proj): Sequential(
              (0): LayerNorm((192,), eps=1e-05, elementwise_affine=True)
              (1): Linear(in_features=192, out_features=192, bias=True)
            )
            (proj): Linear(in_features=192, out_features=192, bias=True)
            (final): Linear(in_features=192, out_features=192, bias=True)
            (dropout): Dropout(p=0.0, inplace=False)
          )
          (self_attn): MultiheadAttention(
            (attn): MultiheadAttention(
              (out_proj): NonDynamicallyQuantizableLinear(in_features=192, out_features=192, bias=True)
            )
            (proj_drop): Dropout(p=0.0, inplace=False)
            (dropout_layer): Dropout(p=0.0, inplace=False)
          )
          (ffn): FFN(
            (activate): ReLU(inplace=True)
            (layers): Sequential(
              (0): Sequential(
                (0): Linear(in_features=192, out_features=1536, bias=True)
                (1): ReLU(inplace=True)
                (2): Dropout(p=0.0, inplace=False)
              )
              (1): Linear(in_features=1536, out_features=192, bias=True)
              (2): Dropout(p=0.0, inplace=False)
            )
            (dropout_layer): Identity()
          )
          (norms): ModuleList(
            (0): LayerNorm((192,), eps=1e-05, elementwise_affine=True)
            (1): LayerNorm((192,), eps=1e-05, elementwise_affine=True)
            (2): LayerNorm((192,), eps=1e-05, elementwise_affine=True)
          )
        )
        (4): SparseProtoTransformerDecoderLayer_0(
          (pem_cross_attn): SPOT_CA_0(
            (key_proj): Sequential(
              (0): LayerNorm((192,), eps=1e-05, elementwise_affine=True)
              (1): Linear(in_features=192, out_features=192, bias=True)
            )
            (query_proj): Sequential(
              (0): LayerNorm((192,), eps=1e-05, elementwise_affine=True)
              (1): Linear(in_features=192, out_features=192, bias=True)
            )
            (proj): Linear(in_features=192, out_features=192, bias=True)
            (final): Linear(in_features=192, out_features=192, bias=True)
            (dropout): Dropout(p=0.0, inplace=False)
          )
          (self_attn): MultiheadAttention(
            (attn): MultiheadAttention(
              (out_proj): NonDynamicallyQuantizableLinear(in_features=192, out_features=192, bias=True)
            )
            (proj_drop): Dropout(p=0.0, inplace=False)
            (dropout_layer): Dropout(p=0.0, inplace=False)
          )
          (ffn): FFN(
            (activate): ReLU(inplace=True)
            (layers): Sequential(
              (0): Sequential(
                (0): Linear(in_features=192, out_features=1536, bias=True)
                (1): ReLU(inplace=True)
                (2): Dropout(p=0.0, inplace=False)
              )
              (1): Linear(in_features=1536, out_features=192, bias=True)
              (2): Dropout(p=0.0, inplace=False)
            )
            (dropout_layer): Identity()
          )
          (norms): ModuleList(
            (0): LayerNorm((192,), eps=1e-05, elementwise_affine=True)
            (1): LayerNorm((192,), eps=1e-05, elementwise_affine=True)
            (2): LayerNorm((192,), eps=1e-05, elementwise_affine=True)
          )
        )
        (5): SparseProtoTransformerDecoderLayer_0(
          (pem_cross_attn): SPOT_CA_0(
            (key_proj): Sequential(
              (0): LayerNorm((192,), eps=1e-05, elementwise_affine=True)
              (1): Linear(in_features=192, out_features=192, bias=True)
            )
            (query_proj): Sequential(
              (0): LayerNorm((192,), eps=1e-05, elementwise_affine=True)
              (1): Linear(in_features=192, out_features=192, bias=True)
            )
            (proj): Linear(in_features=192, out_features=192, bias=True)
            (final): Linear(in_features=192, out_features=192, bias=True)
            (dropout): Dropout(p=0.0, inplace=False)
          )
          (self_attn): MultiheadAttention(
            (attn): MultiheadAttention(
              (out_proj): NonDynamicallyQuantizableLinear(in_features=192, out_features=192, bias=True)
            )
            (proj_drop): Dropout(p=0.0, inplace=False)
            (dropout_layer): Dropout(p=0.0, inplace=False)
          )
          (ffn): FFN(
            (activate): ReLU(inplace=True)
            (layers): Sequential(
              (0): Sequential(
                (0): Linear(in_features=192, out_features=1536, bias=True)
                (1): ReLU(inplace=True)
                (2): Dropout(p=0.0, inplace=False)
              )
              (1): Linear(in_features=1536, out_features=192, bias=True)
              (2): Dropout(p=0.0, inplace=False)
            )
            (dropout_layer): Identity()
          )
          (norms): ModuleList(
            (0): LayerNorm((192,), eps=1e-05, elementwise_affine=True)
            (1): LayerNorm((192,), eps=1e-05, elementwise_affine=True)
            (2): LayerNorm((192,), eps=1e-05, elementwise_affine=True)
          )
        )
        (6): SparseProtoTransformerDecoderLayer_0(
          (pem_cross_attn): SPOT_CA_0(
            (key_proj): Sequential(
              (0): LayerNorm((192,), eps=1e-05, elementwise_affine=True)
              (1): Linear(in_features=192, out_features=192, bias=True)
            )
            (query_proj): Sequential(
              (0): LayerNorm((192,), eps=1e-05, elementwise_affine=True)
              (1): Linear(in_features=192, out_features=192, bias=True)
            )
            (proj): Linear(in_features=192, out_features=192, bias=True)
            (final): Linear(in_features=192, out_features=192, bias=True)
            (dropout): Dropout(p=0.0, inplace=False)
          )
          (self_attn): MultiheadAttention(
            (attn): MultiheadAttention(
              (out_proj): NonDynamicallyQuantizableLinear(in_features=192, out_features=192, bias=True)
            )
            (proj_drop): Dropout(p=0.0, inplace=False)
            (dropout_layer): Dropout(p=0.0, inplace=False)
          )
          (ffn): FFN(
            (activate): ReLU(inplace=True)
            (layers): Sequential(
              (0): Sequential(
                (0): Linear(in_features=192, out_features=1536, bias=True)
                (1): ReLU(inplace=True)
                (2): Dropout(p=0.0, inplace=False)
              )
              (1): Linear(in_features=1536, out_features=192, bias=True)
              (2): Dropout(p=0.0, inplace=False)
            )
            (dropout_layer): Identity()
          )
          (norms): ModuleList(
            (0): LayerNorm((192,), eps=1e-05, elementwise_affine=True)
            (1): LayerNorm((192,), eps=1e-05, elementwise_affine=True)
            (2): LayerNorm((192,), eps=1e-05, elementwise_affine=True)
          )
        )
        (7): SparseProtoTransformerDecoderLayer_0(
          (pem_cross_attn): SPOT_CA_0(
            (key_proj): Sequential(
              (0): LayerNorm((192,), eps=1e-05, elementwise_affine=True)
              (1): Linear(in_features=192, out_features=192, bias=True)
            )
            (query_proj): Sequential(
              (0): LayerNorm((192,), eps=1e-05, elementwise_affine=True)
              (1): Linear(in_features=192, out_features=192, bias=True)
            )
            (proj): Linear(in_features=192, out_features=192, bias=True)
            (final): Linear(in_features=192, out_features=192, bias=True)
            (dropout): Dropout(p=0.0, inplace=False)
          )
          (self_attn): MultiheadAttention(
            (attn): MultiheadAttention(
              (out_proj): NonDynamicallyQuantizableLinear(in_features=192, out_features=192, bias=True)
            )
            (proj_drop): Dropout(p=0.0, inplace=False)
            (dropout_layer): Dropout(p=0.0, inplace=False)
          )
          (ffn): FFN(
            (activate): ReLU(inplace=True)
            (layers): Sequential(
              (0): Sequential(
                (0): Linear(in_features=192, out_features=1536, bias=True)
                (1): ReLU(inplace=True)
                (2): Dropout(p=0.0, inplace=False)
              )
              (1): Linear(in_features=1536, out_features=192, bias=True)
              (2): Dropout(p=0.0, inplace=False)
            )
            (dropout_layer): Identity()
          )
          (norms): ModuleList(
            (0): LayerNorm((192,), eps=1e-05, elementwise_affine=True)
            (1): LayerNorm((192,), eps=1e-05, elementwise_affine=True)
            (2): LayerNorm((192,), eps=1e-05, elementwise_affine=True)
          )
        )
        (8): SparseProtoTransformerDecoderLayer_0(
          (pem_cross_attn): SPOT_CA_0(
            (key_proj): Sequential(
              (0): LayerNorm((192,), eps=1e-05, elementwise_affine=True)
              (1): Linear(in_features=192, out_features=192, bias=True)
            )
            (query_proj): Sequential(
              (0): LayerNorm((192,), eps=1e-05, elementwise_affine=True)
              (1): Linear(in_features=192, out_features=192, bias=True)
            )
            (proj): Linear(in_features=192, out_features=192, bias=True)
            (final): Linear(in_features=192, out_features=192, bias=True)
            (dropout): Dropout(p=0.0, inplace=False)
          )
          (self_attn): MultiheadAttention(
            (attn): MultiheadAttention(
              (out_proj): NonDynamicallyQuantizableLinear(in_features=192, out_features=192, bias=True)
            )
            (proj_drop): Dropout(p=0.0, inplace=False)
            (dropout_layer): Dropout(p=0.0, inplace=False)
          )
          (ffn): FFN(
            (activate): ReLU(inplace=True)
            (layers): Sequential(
              (0): Sequential(
                (0): Linear(in_features=192, out_features=1536, bias=True)
                (1): ReLU(inplace=True)
                (2): Dropout(p=0.0, inplace=False)
              )
              (1): Linear(in_features=1536, out_features=192, bias=True)
              (2): Dropout(p=0.0, inplace=False)
            )
            (dropout_layer): Identity()
          )
          (norms): ModuleList(
            (0): LayerNorm((192,), eps=1e-05, elementwise_affine=True)
            (1): LayerNorm((192,), eps=1e-05, elementwise_affine=True)
            (2): LayerNorm((192,), eps=1e-05, elementwise_affine=True)
          )
        )
      )
      (post_norm): LayerNorm((192,), eps=1e-05, elementwise_affine=True)
    )
    (decoder_input_projs): ModuleList(
      (0): Identity()
      (1): Identity()
      (2): Identity()
    )
    (decoder_positional_encoding): SinePositionalEncoding3D(num_feats=64.0, temperature=10000, normalize=True, scale=6.283185307179586, eps=1e-06)
    (query_embed): Embedding(100, 192)
    (query_feat): Embedding(100, 192)
    (level_embed): Embedding(3, 192)
    (cls_embed): Linear(in_features=192, out_features=21, bias=True)
    (mask_embed): Sequential(
      (0): Linear(in_features=192, out_features=192, bias=True)
      (1): ReLU(inplace=True)
      (2): Linear(in_features=192, out_features=192, bias=True)
      (3): ReLU(inplace=True)
      (4): Linear(in_features=192, out_features=192, bias=True)
    )
    (label_enc): Embedding(20, 192)
    (loss_cls): CrossEntropyLoss()
    (loss_mask): CrossEntropyLoss()
    (loss_dice): DiceLoss()
  )
  (img_backbone): CustomEfficientNet(
    (layers): ModuleList(
      (0): ConvModule(
        (conv): Conv2dAdaptivePadding(3, 64, kernel_size=(3, 3), stride=(2, 2), bias=False)
        (bn): SyncBatchNorm(64, eps=0.001, momentum=0.1, affine=True, track_running_stats=True)
        (activate): Swish()
      )
      (1): Sequential(
        (0): InvertedResidual(
          (drop_path): Identity()
          (depthwise_conv): ConvModule(
            (conv): Conv2dAdaptivePadding(64, 64, kernel_size=(3, 3), stride=(1, 1), groups=64, bias=False)
            (bn): SyncBatchNorm(64, eps=0.001, momentum=0.1, affine=True, track_running_stats=True)
            (activate): Swish()
          )
          (se): SELayer(
            (global_avgpool): AdaptiveAvgPool2d(output_size=1)
            (conv1): ConvModule(
              (conv): Conv2d(64, 16, kernel_size=(1, 1), stride=(1, 1))
              (activate): Swish()
            )
            (conv2): ConvModule(
              (conv): Conv2d(16, 64, kernel_size=(1, 1), stride=(1, 1))
              (activate): Sigmoid()
            )
          )
          (linear_conv): ConvModule(
            (conv): Conv2dAdaptivePadding(64, 32, kernel_size=(1, 1), stride=(1, 1), bias=False)
            (bn): SyncBatchNorm(32, eps=0.001, momentum=0.1, affine=True, track_running_stats=True)
          )
        )
        (1): InvertedResidual(
          (drop_path): DropPath()
          (depthwise_conv): ConvModule(
            (conv): Conv2dAdaptivePadding(32, 32, kernel_size=(3, 3), stride=(1, 1), groups=32, bias=False)
            (bn): SyncBatchNorm(32, eps=0.001, momentum=0.1, affine=True, track_running_stats=True)
            (activate): Swish()
          )
          (se): SELayer(
            (global_avgpool): AdaptiveAvgPool2d(output_size=1)
            (conv1): ConvModule(
              (conv): Conv2d(32, 8, kernel_size=(1, 1), stride=(1, 1))
              (activate): Swish()
            )
            (conv2): ConvModule(
              (conv): Conv2d(8, 32, kernel_size=(1, 1), stride=(1, 1))
              (activate): Sigmoid()
            )
          )
          (linear_conv): ConvModule(
            (conv): Conv2dAdaptivePadding(32, 32, kernel_size=(1, 1), stride=(1, 1), bias=False)
            (bn): SyncBatchNorm(32, eps=0.001, momentum=0.1, affine=True, track_running_stats=True)
          )
        )
        (2): InvertedResidual(
          (drop_path): DropPath()
          (depthwise_conv): ConvModule(
            (conv): Conv2dAdaptivePadding(32, 32, kernel_size=(3, 3), stride=(1, 1), groups=32, bias=False)
            (bn): SyncBatchNorm(32, eps=0.001, momentum=0.1, affine=True, track_running_stats=True)
            (activate): Swish()
          )
          (se): SELayer(
            (global_avgpool): AdaptiveAvgPool2d(output_size=1)
            (conv1): ConvModule(
              (conv): Conv2d(32, 8, kernel_size=(1, 1), stride=(1, 1))
              (activate): Swish()
            )
            (conv2): ConvModule(
              (conv): Conv2d(8, 32, kernel_size=(1, 1), stride=(1, 1))
              (activate): Sigmoid()
            )
          )
          (linear_conv): ConvModule(
            (conv): Conv2dAdaptivePadding(32, 32, kernel_size=(1, 1), stride=(1, 1), bias=False)
            (bn): SyncBatchNorm(32, eps=0.001, momentum=0.1, affine=True, track_running_stats=True)
          )
        )
        (3): InvertedResidual(
          (drop_path): DropPath()
          (depthwise_conv): ConvModule(
            (conv): Conv2dAdaptivePadding(32, 32, kernel_size=(3, 3), stride=(1, 1), groups=32, bias=False)
            (bn): SyncBatchNorm(32, eps=0.001, momentum=0.1, affine=True, track_running_stats=True)
            (activate): Swish()
          )
          (se): SELayer(
            (global_avgpool): AdaptiveAvgPool2d(output_size=1)
            (conv1): ConvModule(
              (conv): Conv2d(32, 8, kernel_size=(1, 1), stride=(1, 1))
              (activate): Swish()
            )
            (conv2): ConvModule(
              (conv): Conv2d(8, 32, kernel_size=(1, 1), stride=(1, 1))
              (activate): Sigmoid()
            )
          )
          (linear_conv): ConvModule(
            (conv): Conv2dAdaptivePadding(32, 32, kernel_size=(1, 1), stride=(1, 1), bias=False)
            (bn): SyncBatchNorm(32, eps=0.001, momentum=0.1, affine=True, track_running_stats=True)
          )
        )
      )
      (2): Sequential(
        (0): InvertedResidual(
…
            (conv): Conv2dAdaptivePadding(640, 3840, kernel_size=(1, 1), stride=(1, 1), bias=False)
            (bn): SyncBatchNorm(3840, eps=0.001, momentum=0.1, affine=True, track_running_stats=True)
            (activate): Swish()
          )
          (depthwise_conv): ConvModule(
            (conv): Conv2dAdaptivePadding(3840, 3840, kernel_size=(3, 3), stride=(1, 1), groups=3840, bias=False)
            (bn): SyncBatchNorm(3840, eps=0.001, momentum=0.1, affine=True, track_running_stats=True)
            (activate): Swish()
          )
          (se): SELayer(
            (global_avgpool): AdaptiveAvgPool2d(output_size=1)
            (conv1): ConvModule(
              (conv): Conv2d(3840, 160, kernel_size=(1, 1), stride=(1, 1))
              (activate): Swish()
            )
            (conv2): ConvModule(
              (conv): Conv2d(160, 3840, kernel_size=(1, 1), stride=(1, 1))
              (activate): Sigmoid()
            )
          )
          (linear_conv): ConvModule(
            (conv): Conv2dAdaptivePadding(3840, 640, kernel_size=(1, 1), stride=(1, 1), bias=False)
            (bn): SyncBatchNorm(640, eps=0.001, momentum=0.1, affine=True, track_running_stats=True)
          )
        )
      )
      (6): ConvModule(
        (conv): Conv2dAdaptivePadding(640, 2560, kernel_size=(1, 1), stride=(1, 1), bias=False)
        (bn): SyncBatchNorm(2560, eps=0.001, momentum=0.1, affine=True, track_running_stats=True)
        (activate): Swish()
      )
    )
  )
  init_cfg={'type': 'Pretrained', 'prefix': 'backbone', 'checkpoint': 'ckpts/efficientnet-b7_3rdparty_8xb32-aa_in1k_20220119-bf03951c.pth'}
  (img_neck): SECONDFPN(
    (deblocks): ModuleList(
      (0): Sequential(
        (0): Conv2d(48, 128, kernel_size=(4, 4), stride=(4, 4), bias=False)
        (1): SyncBatchNorm(128, eps=0.001, momentum=0.01, affine=True, track_running_stats=True)
        (2): ReLU(inplace=True)
      )
      (1): Sequential(
        (0): Conv2d(80, 128, kernel_size=(2, 2), stride=(2, 2), bias=False)
        (1): SyncBatchNorm(128, eps=0.001, momentum=0.01, affine=True, track_running_stats=True)
        (2): ReLU(inplace=True)
      )
      (2): Sequential(
        (0): ConvTranspose2d(224, 128, kernel_size=(1, 1), stride=(1, 1), bias=False)
        (1): SyncBatchNorm(128, eps=0.001, momentum=0.01, affine=True, track_running_stats=True)
        (2): ReLU(inplace=True)
      )
      (3): Sequential(
        (0): ConvTranspose2d(640, 128, kernel_size=(2, 2), stride=(2, 2), bias=False)
        (1): SyncBatchNorm(128, eps=0.001, momentum=0.01, affine=True, track_running_stats=True)
        (2): ReLU(inplace=True)
      )
      (4): Sequential(
        (0): ConvTranspose2d(2560, 128, kernel_size=(2, 2), stride=(2, 2), bias=False)
        (1): SyncBatchNorm(128, eps=0.001, momentum=0.01, affine=True, track_running_stats=True)
        (2): ReLU(inplace=True)
      )
    )
  )
  init_cfg=[{'type': 'Kaiming', 'layer': 'ConvTranspose2d'}, {'type': 'Constant', 'layer': 'NaiveSyncBatchNorm2d', 'val': 1.0}]
  (img_view_transformer): ViewTransformerLiftSplatShootVoxel(
    (depth_net): DepthNet(
      (reduce_conv): Sequential(
        (0): Conv2d(640, 640, kernel_size=(3, 3), stride=(1, 1), padding=(1, 1))
        (1): SyncBatchNorm(640, eps=1e-05, momentum=0.1, affine=True, track_running_stats=True)
        (2): ReLU(inplace=True)
      )
      (context_conv): Conv2d(640, 128, kernel_size=(1, 1), stride=(1, 1))
      (bn): SyncBatchNorm(33, eps=1e-05, momentum=0.1, affine=True, track_running_stats=True)
      (depth_mlp): Mlp(
        (fc1): Linear(in_features=33, out_features=640, bias=True)
        (act): ReLU()
        (drop1): Dropout(p=0.0, inplace=False)
        (fc2): Linear(in_features=640, out_features=640, bias=True)
        (drop2): Dropout(p=0.0, inplace=False)
      )
      (depth_se): SELayer(
        (conv_reduce): Conv2d(640, 640, kernel_size=(1, 1), stride=(1, 1))
        (act1): ReLU()
        (conv_expand): Conv2d(640, 640, kernel_size=(1, 1), stride=(1, 1))
        (gate): Sigmoid()
      )
      (context_mlp): Mlp(
        (fc1): Linear(in_features=33, out_features=640, bias=True)
        (act): ReLU()
        (drop1): Dropout(p=0.0, inplace=False)
        (fc2): Linear(in_features=640, out_features=640, bias=True)
        (drop2): Dropout(p=0.0, inplace=False)
      )
      (context_se): SELayer(
        (conv_reduce): Conv2d(640, 640, kernel_size=(1, 1), stride=(1, 1))
        (act1): ReLU()
        (conv_expand): Conv2d(640, 640, kernel_size=(1, 1), stride=(1, 1))
        (gate): Sigmoid()
      )
      (depth_conv): Sequential(
        (0): BasicBlock(
          (conv1): Conv2d(640, 640, kernel_size=(3, 3), stride=(1, 1), padding=(1, 1), bias=False)
          (bn1): SyncBatchNorm(640, eps=1e-05, momentum=0.1, affine=True, track_running_stats=True)
          (conv2): Conv2d(640, 640, kernel_size=(3, 3), stride=(1, 1), padding=(1, 1), bias=False)
          (bn2): SyncBatchNorm(640, eps=1e-05, momentum=0.1, affine=True, track_running_stats=True)
          (relu): ReLU(inplace=True)
        )
        (1): BasicBlock(
          (conv1): Conv2d(640, 640, kernel_size=(3, 3), stride=(1, 1), padding=(1, 1), bias=False)
          (bn1): SyncBatchNorm(640, eps=1e-05, momentum=0.1, affine=True, track_running_stats=True)
          (conv2): Conv2d(640, 640, kernel_size=(3, 3), stride=(1, 1), padding=(1, 1), bias=False)
          (bn2): SyncBatchNorm(640, eps=1e-05, momentum=0.1, affine=True, track_running_stats=True)
          (relu): ReLU(inplace=True)
        )
        (2): BasicBlock(
          (conv1): Conv2d(640, 640, kernel_size=(3, 3), stride=(1, 1), padding=(1, 1), bias=False)
          (bn1): SyncBatchNorm(640, eps=1e-05, momentum=0.1, affine=True, track_running_stats=True)
          (conv2): Conv2d(640, 640, kernel_size=(3, 3), stride=(1, 1), padding=(1, 1), bias=False)
          (bn2): SyncBatchNorm(640, eps=1e-05, momentum=0.1, affine=True, track_running_stats=True)
          (relu): ReLU(inplace=True)
        )
        (3): ASPP(
          (aspp1): _ASPPModule(
            (atrous_conv): Conv2d(640, 640, kernel_size=(1, 1), stride=(1, 1), bias=False)
            (bn): SyncBatchNorm(640, eps=1e-05, momentum=0.1, affine=True, track_running_stats=True)
            (relu): ReLU()
          )
          (aspp2): _ASPPModule(
            (atrous_conv): Conv2d(640, 640, kernel_size=(3, 3), stride=(1, 1), padding=(6, 6), dilation=(6, 6), bias=False)
            (bn): SyncBatchNorm(640, eps=1e-05, momentum=0.1, affine=True, track_running_stats=True)
            (relu): ReLU()
          )
          (aspp3): _ASPPModule(
            (atrous_conv): Conv2d(640, 640, kernel_size=(3, 3), stride=(1, 1), padding=(12, 12), dilation=(12, 12), bias=False)
            (bn): SyncBatchNorm(640, eps=1e-05, momentum=0.1, affine=True, track_running_stats=True)
            (relu): ReLU()
          )
          (aspp4): _ASPPModule(
            (atrous_conv): Conv2d(640, 640, kernel_size=(3, 3), stride=(1, 1), padding=(18, 18), dilation=(18, 18), bias=False)
            (bn): SyncBatchNorm(640, eps=1e-05, momentum=0.1, affine=True, track_running_stats=True)
            (relu): ReLU()
          )
          (global_avg_pool): Sequential(
            (0): AdaptiveAvgPool2d(output_size=(1, 1))
            (1): Conv2d(640, 640, kernel_size=(1, 1), stride=(1, 1), bias=False)
            (2): SyncBatchNorm(640, eps=1e-05, momentum=0.1, affine=True, track_running_stats=True)
            (3): ReLU()
          )
          (conv1): Conv2d(3200, 640, kernel_size=(1, 1), stride=(1, 1), bias=False)
          (bn1): SyncBatchNorm(640, eps=1e-05, momentum=0.1, affine=True, track_running_stats=True)
          (relu): ReLU()
          (dropout): Dropout(p=0.5, inplace=False)
        )
        (4): DeformConv2dPack(in_channels=640,
        out_channels=640,
        kernel_size=(3, 3),
        stride=(1, 1),
        padding=(1, 1),
        dilation=(1, 1),
        groups=4,
        deform_groups=1,
        bias=False)
        (5): Conv2d(640, 112, kernel_size=(1, 1), stride=(1, 1))
      )
    )
  )
  (img_bev_encoder_backbone): SparseLatentDiffuser(
    (resBlock0): SparseBasicBlock(
      (net): SparseSequential(
        (0): SubMConv3d(128, 128, kernel_size=[3, 3, 3], stride=[1, 1, 1], padding=[1, 1, 1], dilation=[1, 1, 1], output_padding=[0, 0, 0], bias=False, algo=ConvAlgo.MaskImplicitGemm)
        (1): SyncBatchNorm(128, eps=1e-05, momentum=0.1, affine=True, track_running_stats=True)
…
