…
img_bev_encoder_neck.up_sample.1.1.weight - torch.Size([192]): 
The value is the same before and after calling `init_weights` of spotocc  

img_bev_encoder_neck.up_sample.1.1.bias - torch.Size([192]): 
The value is the same before and after calling `init_weights` of spotocc  
2025-08-29 23:39:50,395 - mmdet - INFO - Model:
spotocc(
  (pts_bbox_head): SparseProtoMask2FormerOpenOccHead(
    (transformer_decoder): DetrTransformerDecoder(
      (layers): ModuleList(
        (0): SparseProtoTransformerDecoderLayer(
          (spot_cross_attn): SPOT_CA(
            (key_proj): Sequential(
              (0): LayerNorm((192,), eps=1e-05, elementwise_affine=True)
              (1): Linear(in_features=192, out_features=192, bias=True)
            )
            (query_proj): Sequential(
              (0): LayerNorm((192,), eps=1e-05, elementwise_affine=True)
              (1): Linear(in_features=192, out_features=192, bias=True)
            )
            (proj): Linear(in_features=192, out_features=192, bias=True)
            (final): Linear(in_features=192, out_features=192, bias=True)
            (dropout): Dropout(p=0.0, inplace=False)
          )
          (self_attn): MultiheadAttention(
            (attn): MultiheadAttention(
              (out_proj): NonDynamicallyQuantizableLinear(in_features=192, out_features=192, bias=True)
            )
            (proj_drop): Dropout(p=0.0, inplace=False)
            (dropout_layer): Dropout(p=0.0, inplace=False)
          )
          (ffn): FFN(
            (activate): ReLU(inplace=True)
            (layers): Sequential(
              (0): Sequential(
                (0): Linear(in_features=192, out_features=1536, bias=True)
                (1): ReLU(inplace=True)
                (2): Dropout(p=0.0, inplace=False)
              )
              (1): Linear(in_features=1536, out_features=192, bias=True)
              (2): Dropout(p=0.0, inplace=False)
            )
            (dropout_layer): Identity()
          )
          (norms): ModuleList(
            (0): LayerNorm((192,), eps=1e-05, elementwise_affine=True)
            (1): LayerNorm((192,), eps=1e-05, elementwise_affine=True)
            (2): LayerNorm((192,), eps=1e-05, elementwise_affine=True)
          )
        )
        (1): SparseProtoTransformerDecoderLayer(
          (spot_cross_attn): SPOT_CA(
            (key_proj): Sequential(
              (0): LayerNorm((192,), eps=1e-05, elementwise_affine=True)
              (1): Linear(in_features=192, out_features=192, bias=True)
            )
            (query_proj): Sequential(
              (0): LayerNorm((192,), eps=1e-05, elementwise_affine=True)
              (1): Linear(in_features=192, out_features=192, bias=True)
            )
            (proj): Linear(in_features=192, out_features=192, bias=True)
            (final): Linear(in_features=192, out_features=192, bias=True)
            (dropout): Dropout(p=0.0, inplace=False)
          )
          (self_attn): MultiheadAttention(
            (attn): MultiheadAttention(
              (out_proj): NonDynamicallyQuantizableLinear(in_features=192, out_features=192, bias=True)
            )
            (proj_drop): Dropout(p=0.0, inplace=False)
            (dropout_layer): Dropout(p=0.0, inplace=False)
          )
          (ffn): FFN(
            (activate): ReLU(inplace=True)
            (layers): Sequential(
              (0): Sequential(
                (0): Linear(in_features=192, out_features=1536, bias=True)
                (1): ReLU(inplace=True)
                (2): Dropout(p=0.0, inplace=False)
              )
              (1): Linear(in_features=1536, out_features=192, bias=True)
              (2): Dropout(p=0.0, inplace=False)
            )
            (dropout_layer): Identity()
          )
          (norms): ModuleList(
            (0): LayerNorm((192,), eps=1e-05, elementwise_affine=True)
            (1): LayerNorm((192,), eps=1e-05, elementwise_affine=True)
            (2): LayerNorm((192,), eps=1e-05, elementwise_affine=True)
          )
        )
        (2): SparseProtoTransformerDecoderLayer(
          (spot_cross_attn): SPOT_CA(
            (key_proj): Sequential(
              (0): LayerNorm((192,), eps=1e-05, elementwise_affine=True)
              (1): Linear(in_features=192, out_features=192, bias=True)
            )
            (query_proj): Sequential(
              (0): LayerNorm((192,), eps=1e-05, elementwise_affine=True)
              (1): Linear(in_features=192, out_features=192, bias=True)
            )
            (proj): Linear(in_features=192, out_features=192, bias=True)
            (final): Linear(in_features=192, out_features=192, bias=True)
            (dropout): Dropout(p=0.0, inplace=False)
          )
          (self_attn): MultiheadAttention(
            (attn): MultiheadAttention(
              (out_proj): NonDynamicallyQuantizableLinear(in_features=192, out_features=192, bias=True)
            )
            (proj_drop): Dropout(p=0.0, inplace=False)
            (dropout_layer): Dropout(p=0.0, inplace=False)
          )
          (ffn): FFN(
            (activate): ReLU(inplace=True)
            (layers): Sequential(
              (0): Sequential(
                (0): Linear(in_features=192, out_features=1536, bias=True)
                (1): ReLU(inplace=True)
                (2): Dropout(p=0.0, inplace=False)
              )
              (1): Linear(in_features=1536, out_features=192, bias=True)
              (2): Dropout(p=0.0, inplace=False)
            )
            (dropout_layer): Identity()
          )
          (norms): ModuleList(
            (0): LayerNorm((192,), eps=1e-05, elementwise_affine=True)
            (1): LayerNorm((192,), eps=1e-05, elementwise_affine=True)
            (2): LayerNorm((192,), eps=1e-05, elementwise_affine=True)
          )
        )
        (3): SparseProtoTransformerDecoderLayer(
          (spot_cross_attn): SPOT_CA(
            (key_proj): Sequential(
              (0): LayerNorm((192,), eps=1e-05, elementwise_affine=True)
              (1): Linear(in_features=192, out_features=192, bias=True)
            )
            (query_proj): Sequential(
              (0): LayerNorm((192,), eps=1e-05, elementwise_affine=True)
              (1): Linear(in_features=192, out_features=192, bias=True)
            )
            (proj): Linear(in_features=192, out_features=192, bias=True)
            (final): Linear(in_features=192, out_features=192, bias=True)
            (dropout): Dropout(p=0.0, inplace=False)
          )
          (self_attn): MultiheadAttention(
            (attn): MultiheadAttention(
              (out_proj): NonDynamicallyQuantizableLinear(in_features=192, out_features=192, bias=True)
            )
            (proj_drop): Dropout(p=0.0, inplace=False)
            (dropout_layer): Dropout(p=0.0, inplace=False)
          )
          (ffn): FFN(
            (activate): ReLU(inplace=True)
            (layers): Sequential(
              (0): Sequential(
                (0): Linear(in_features=192, out_features=1536, bias=True)
                (1): ReLU(inplace=True)
                (2): Dropout(p=0.0, inplace=False)
              )
              (1): Linear(in_features=1536, out_features=192, bias=True)
              (2): Dropout(p=0.0, inplace=False)
            )
            (dropout_layer): Identity()
          )
          (norms): ModuleList(
            (0): LayerNorm((192,), eps=1e-05, elementwise_affine=True)
            (1): LayerNorm((192,), eps=1e-05, elementwise_affine=True)
            (2): LayerNorm((192,), eps=1e-05, elementwise_affine=True)
          )
        )
        (4): SparseProtoTransformerDecoderLayer(
          (spot_cross_attn): SPOT_CA(
            (key_proj): Sequential(
              (0): LayerNorm((192,), eps=1e-05, elementwise_affine=True)
              (1): Linear(in_features=192, out_features=192, bias=True)
            )
            (query_proj): Sequential(
              (0): LayerNorm((192,), eps=1e-05, elementwise_affine=True)
              (1): Linear(in_features=192, out_features=192, bias=True)
            )
            (proj): Linear(in_features=192, out_features=192, bias=True)
            (final): Linear(in_features=192, out_features=192, bias=True)
            (dropout): Dropout(p=0.0, inplace=False)
          )
          (self_attn): MultiheadAttention(
            (attn): MultiheadAttention(
              (out_proj): NonDynamicallyQuantizableLinear(in_features=192, out_features=192, bias=True)
            )
            (proj_drop): Dropout(p=0.0, inplace=False)
            (dropout_layer): Dropout(p=0.0, inplace=False)
          )
          (ffn): FFN(
            (activate): ReLU(inplace=True)
            (layers): Sequential(
              (0): Sequential(
                (0): Linear(in_features=192, out_features=1536, bias=True)
                (1): ReLU(inplace=True)
                (2): Dropout(p=0.0, inplace=False)
              )
              (1): Linear(in_features=1536, out_features=192, bias=True)
              (2): Dropout(p=0.0, inplace=False)
            )
            (dropout_layer): Identity()
          )
          (norms): ModuleList(
            (0): LayerNorm((192,), eps=1e-05, elementwise_affine=True)
            (1): LayerNorm((192,), eps=1e-05, elementwise_affine=True)
            (2): LayerNorm((192,), eps=1e-05, elementwise_affine=True)
          )
        )
        (5): SparseProtoTransformerDecoderLayer(
          (spot_cross_attn): SPOT_CA(
            (key_proj): Sequential(
              (0): LayerNorm((192,), eps=1e-05, elementwise_affine=True)
              (1): Linear(in_features=192, out_features=192, bias=True)
            )
            (query_proj): Sequential(
              (0): LayerNorm((192,), eps=1e-05, elementwise_affine=True)
              (1): Linear(in_features=192, out_features=192, bias=True)
            )
            (proj): Linear(in_features=192, out_features=192, bias=True)
            (final): Linear(in_features=192, out_features=192, bias=True)
            (dropout): Dropout(p=0.0, inplace=False)
          )
          (self_attn): MultiheadAttention(
            (attn): MultiheadAttention(
              (out_proj): NonDynamicallyQuantizableLinear(in_features=192, out_features=192, bias=True)
            )
            (proj_drop): Dropout(p=0.0, inplace=False)
            (dropout_layer): Dropout(p=0.0, inplace=False)
          )
          (ffn): FFN(
            (activate): ReLU(inplace=True)
            (layers): Sequential(
              (0): Sequential(
                (0): Linear(in_features=192, out_features=1536, bias=True)
                (1): ReLU(inplace=True)
                (2): Dropout(p=0.0, inplace=False)
              )
              (1): Linear(in_features=1536, out_features=192, bias=True)
              (2): Dropout(p=0.0, inplace=False)
            )
            (dropout_layer): Identity()
          )
          (norms): ModuleList(
            (0): LayerNorm((192,), eps=1e-05, elementwise_affine=True)
            (1): LayerNorm((192,), eps=1e-05, elementwise_affine=True)
            (2): LayerNorm((192,), eps=1e-05, elementwise_affine=True)
          )
        )
        (6): SparseProtoTransformerDecoderLayer(
          (spot_cross_attn): SPOT_CA(
            (key_proj): Sequential(
              (0): LayerNorm((192,), eps=1e-05, elementwise_affine=True)
              (1): Linear(in_features=192, out_features=192, bias=True)
            )
            (query_proj): Sequential(
              (0): LayerNorm((192,), eps=1e-05, elementwise_affine=True)
              (1): Linear(in_features=192, out_features=192, bias=True)
            )
            (proj): Linear(in_features=192, out_features=192, bias=True)
            (final): Linear(in_features=192, out_features=192, bias=True)
            (dropout): Dropout(p=0.0, inplace=False)
          )
          (self_attn): MultiheadAttention(
            (attn): MultiheadAttention(
              (out_proj): NonDynamicallyQuantizableLinear(in_features=192, out_features=192, bias=True)
            )
            (proj_drop): Dropout(p=0.0, inplace=False)
            (dropout_layer): Dropout(p=0.0, inplace=False)
          )
          (ffn): FFN(
            (activate): ReLU(inplace=True)
            (layers): Sequential(
              (0): Sequential(
                (0): Linear(in_features=192, out_features=1536, bias=True)
                (1): ReLU(inplace=True)
                (2): Dropout(p=0.0, inplace=False)
              )
              (1): Linear(in_features=1536, out_features=192, bias=True)
              (2): Dropout(p=0.0, inplace=False)
            )
            (dropout_layer): Identity()
          )
          (norms): ModuleList(
            (0): LayerNorm((192,), eps=1e-05, elementwise_affine=True)
            (1): LayerNorm((192,), eps=1e-05, elementwise_affine=True)
            (2): LayerNorm((192,), eps=1e-05, elementwise_affine=True)
          )
        )
        (7): SparseProtoTransformerDecoderLayer(
          (spot_cross_attn): SPOT_CA(
            (key_proj): Sequential(
              (0): LayerNorm((192,), eps=1e-05, elementwise_affine=True)
              (1): Linear(in_features=192, out_features=192, bias=True)
            )
            (query_proj): Sequential(
              (0): LayerNorm((192,), eps=1e-05, elementwise_affine=True)
              (1): Linear(in_features=192, out_features=192, bias=True)
            )
            (proj): Linear(in_features=192, out_features=192, bias=True)
            (final): Linear(in_features=192, out_features=192, bias=True)
            (dropout): Dropout(p=0.0, inplace=False)
          )
          (self_attn): MultiheadAttention(
            (attn): MultiheadAttention(
              (out_proj): NonDynamicallyQuantizableLinear(in_features=192, out_features=192, bias=True)
            )
            (proj_drop): Dropout(p=0.0, inplace=False)
            (dropout_layer): Dropout(p=0.0, inplace=False)
          )
          (ffn): FFN(
            (activate): ReLU(inplace=True)
            (layers): Sequential(
              (0): Sequential(
                (0): Linear(in_features=192, out_features=1536, bias=True)
                (1): ReLU(inplace=True)
                (2): Dropout(p=0.0, inplace=False)
              )
              (1): Linear(in_features=1536, out_features=192, bias=True)
              (2): Dropout(p=0.0, inplace=False)
            )
            (dropout_layer): Identity()
          )
          (norms): ModuleList(
            (0): LayerNorm((192,), eps=1e-05, elementwise_affine=True)
            (1): LayerNorm((192,), eps=1e-05, elementwise_affine=True)
            (2): LayerNorm((192,), eps=1e-05, elementwise_affine=True)
          )
        )
        (8): SparseProtoTransformerDecoderLayer(
          (spot_cross_attn): SPOT_CA(
            (key_proj): Sequential(
              (0): LayerNorm((192,), eps=1e-05, elementwise_affine=True)
              (1): Linear(in_features=192, out_features=192, bias=True)
            )
            (query_proj): Sequential(
              (0): LayerNorm((192,), eps=1e-05, elementwise_affine=True)
              (1): Linear(in_features=192, out_features=192, bias=True)
            )
            (proj): Linear(in_features=192, out_features=192, bias=True)
            (final): Linear(in_features=192, out_features=192, bias=True)
            (dropout): Dropout(p=0.0, inplace=False)
          )
          (self_attn): MultiheadAttention(
            (attn): MultiheadAttention(
              (out_proj): NonDynamicallyQuantizableLinear(in_features=192, out_features=192, bias=True)
            )
            (proj_drop): Dropout(p=0.0, inplace=False)
            (dropout_layer): Dropout(p=0.0, inplace=False)
          )
          (ffn): FFN(
            (activate): ReLU(inplace=True)
            (layers): Sequential(
              (0): Sequential(
                (0): Linear(in_features=192, out_features=1536, bias=True)
                (1): ReLU(inplace=True)
                (2): Dropout(p=0.0, inplace=False)
              )
              (1): Linear(in_features=1536, out_features=192, bias=True)
              (2): Dropout(p=0.0, inplace=False)
            )
            (dropout_layer): Identity()
          )
          (norms): ModuleList(
            (0): LayerNorm((192,), eps=1e-05, elementwise_affine=True)
            (1): LayerNorm((192,), eps=1e-05, elementwise_affine=True)
            (2): LayerNorm((192,), eps=1e-05, elementwise_affine=True)
          )
        )
      )
      (post_norm): LayerNorm((192,), eps=1e-05, elementwise_affine=True)
    )
    (decoder_input_projs): ModuleList(
      (0): Identity()
      (1): Identity()
      (2): Identity()
    )
    (decoder_positional_encoding): SinePositionalEncoding3D(num_feats=64.0, temperature=10000, normalize=True, scale=6.283185307179586, eps=1e-06)
    (query_embed): Embedding(100, 192)
    (query_feat): Embedding(100, 192)
    (level_embed): Embedding(3, 192)
    (cls_embed): Linear(in_features=192, out_features=18, bias=True)
    (mask_embed): Sequential(
      (0): Linear(in_features=192, out_features=192, bias=True)
      (1): ReLU(inplace=True)
      (2): Linear(in_features=192, out_features=192, bias=True)
      (3): ReLU(inplace=True)
      (4): Linear(in_features=192, out_features=192, bias=True)
    )
    (label_enc): Embedding(17, 192)
    (loss_cls): CrossEntropyLoss()
    (loss_mask): CrossEntropyLoss()
    (loss_dice): DiceLoss()
  )
  (img_backbone): ResNet(
    (conv1): Conv2d(3, 64, kernel_size=(7, 7), stride=(2, 2), padding=(3, 3), bias=False)
    (bn1): SyncBatchNorm(64, eps=1e-05, momentum=0.1, affine=True, track_running_stats=True)
    (relu): ReLU(inplace=True)
    (maxpool): MaxPool2d(kernel_size=3, stride=2, padding=1, dilation=1, ceil_mode=False)
    (layer1): ResLayer(
      (0): Bottleneck(
        (conv1): Conv2d(64, 64, kernel_size=(1, 1), stride=(1, 1), bias=False)
        (bn1): SyncBatchNorm(64, eps=1e-05, momentum=0.1, affine=True, track_running_stats=True)
        (conv2): Conv2d(64, 64, kernel_size=(3, 3), stride=(1, 1), padding=(1, 1), bias=False)
        (bn2): SyncBatchNorm(64, eps=1e-05, momentum=0.1, affine=True, track_running_stats=True)
        (conv3): Conv2d(64, 256, kernel_size=(1, 1), stride=(1, 1), bias=False)
        (bn3): SyncBatchNorm(256, eps=1e-05, momentum=0.1, affine=True, track_running_stats=True)
        (relu): ReLU(inplace=True)
        (downsample): Sequential(
          (0): Conv2d(64, 256, kernel_size=(1, 1), stride=(1, 1), bias=False)
          (1): SyncBatchNorm(256, eps=1e-05, momentum=0.1, affine=True, track_running_stats=True)
        )
      )
      (1): Bottleneck(
        (conv1): Conv2d(256, 64, kernel_size=(1, 1), stride=(1, 1), bias=False)
        (bn1): SyncBatchNorm(64, eps=1e-05, momentum=0.1, affine=True, track_running_stats=True)
        (conv2): Conv2d(64, 64, kernel_size=(3, 3), stride=(1, 1), padding=(1, 1), bias=False)
        (bn2): SyncBatchNorm(64, eps=1e-05, momentum=0.1, affine=True, track_running_stats=True)
        (conv3): Conv2d(64, 256, kernel_size=(1, 1), stride=(1, 1), bias=False)
        (bn3): SyncBatchNorm(256, eps=1e-05, momentum=0.1, affine=True, track_running_stats=True)
        (relu): ReLU(inplace=True)
      )
      (2): Bottleneck(
        (conv1): Conv2d(256, 64, kernel_size=(1, 1), stride=(1, 1), bias=False)
        (bn1): SyncBatchNorm(64, eps=1e-05, momentum=0.1, affine=True, track_running_stats=True)
        (conv2): Conv2d(64, 64, kernel_size=(3, 3), stride=(1, 1), padding=(1, 1), bias=False)
        (bn2): SyncBatchNorm(64, eps=1e-05, momentum=0.1, affine=True, track_running_stats=True)
        (conv3): Conv2d(64, 256, kernel_size=(1, 1), stride=(1, 1), bias=False)
        (bn3): SyncBatchNorm(256, eps=1e-05, momentum=0.1, affine=True, track_running_stats=True)
        (relu): ReLU(inplace=True)
      )
    )
    (layer2): ResLayer(
      (0): Bottleneck(
        (conv1): Conv2d(256, 128, kernel_size=(1, 1), stride=(1, 1), bias=False)
        (bn1): SyncBatchNorm(128, eps=1e-05, momentum=0.1, affine=True, track_running_stats=True)
        (conv2): Conv2d(128, 128, kernel_size=(3, 3), stride=(2, 2), padding=(1, 1), bias=False)
        (bn2): SyncBatchNorm(128, eps=1e-05, momentum=0.1, affine=True, track_running_stats=True)
        (conv3): Conv2d(128, 512, kernel_size=(1, 1), stride=(1, 1), bias=False)
        (bn3): SyncBatchNorm(512, eps=1e-05, momentum=0.1, affine=True, track_running_stats=True)
        (relu): ReLU(inplace=True)
        (downsample): Sequential(
          (0): Conv2d(256, 512, kernel_size=(1, 1), stride=(2, 2), bias=False)
          (1): SyncBatchNorm(512, eps=1e-05, momentum=0.1, affine=True, track_running_stats=True)
        )
      )
      (1): Bottleneck(
        (conv1): Conv2d(512, 128, kernel_size=(1, 1), stride=(1, 1), bias=False)
        (bn1): SyncBatchNorm(128, eps=1e-05, momentum=0.1, affine=True, track_running_stats=True)
        (conv2): Conv2d(128, 128, kernel_size=(3, 3), stride=(1, 1), padding=(1, 1), bias=False)
        (bn2): SyncBatchNorm(128, eps=1e-05, momentum=0.1, affine=True, track_running_stats=True)
        (conv3): Conv2d(128, 512, kernel_size=(1, 1), stride=(1, 1), bias=False)
        (bn3): SyncBatchNorm(512, eps=1e-05, momentum=0.1, affine=True, track_running_stats=True)
        (relu): ReLU(inplace=True)
      )
      (2): Bottleneck(
        (conv1): Conv2d(512, 128, kernel_size=(1, 1), stride=(1, 1), bias=False)
        (bn1): SyncBatchNorm(128, eps=1e-05, momentum=0.1, affine=True, track_running_stats=True)
        (conv2): Conv2d(128, 128, kernel_size=(3, 3), stride=(1, 1), padding=(1, 1), bias=False)
        (bn2): SyncBatchNorm(128, eps=1e-05, momentum=0.1, affine=True, track_running_stats=True)
        (conv3): Conv2d(128, 512, kernel_size=(1, 1), stride=(1, 1), bias=False)
        (bn3): SyncBatchNorm(512, eps=1e-05, momentum=0.1, affine=True, track_running_stats=True)
        (relu): ReLU(inplace=True)
      )
      (3): Bottleneck(
        (conv1): Conv2d(512, 128, kernel_size=(1, 1), stride=(1, 1), bias=False)
        (bn1): SyncBatchNorm(128, eps=1e-05, momentum=0.1, affine=True, track_running_stats=True)
        (conv2): Conv2d(128, 128, kernel_size=(3, 3), stride=(1, 1), padding=(1, 1), bias=False)
        (bn2): SyncBatchNorm(128, eps=1e-05, momentum=0.1, affine=True, track_running_stats=True)
        (conv3): Conv2d(128, 512, kernel_size=(1, 1), stride=(1, 1), bias=False)
        (bn3): SyncBatchNorm(512, eps=1e-05, momentum=0.1, affine=True, track_running_stats=True)
        (relu): ReLU(inplace=True)
      )
    )
    (layer3): ResLayer(
      (0): Bottleneck(
        (conv1): Conv2d(512, 256, kernel_size=(1, 1), stride=(1, 1), bias=False)
        (bn1): SyncBatchNorm(256, eps=1e-05, momentum=0.1, affine=True, track_running_stats=True)
        (conv2): Conv2d(256, 256, kernel_size=(3, 3), stride=(2, 2), padding=(1, 1), bias=False)
        (bn2): SyncBatchNorm(256, eps=1e-05, momentum=0.1, affine=True, track_running_stats=True)
        (conv3): Conv2d(256, 1024, kernel_size=(1, 1), stride=(1, 1), bias=False)
        (bn3): SyncBatchNorm(1024, eps=1e-05, momentum=0.1, affine=True, track_running_stats=True)
        (relu): ReLU(inplace=True)
        (downsample): Sequential(
          (0): Conv2d(512, 1024, kernel_size=(1, 1), stride=(2, 2), bias=False)
          (1): SyncBatchNorm(1024, eps=1e-05, momentum=0.1, affine=True, track_running_stats=True)
        )
      )
      (1): Bottleneck(
        (conv1): Conv2d(1024, 256, kernel_size=(1, 1), stride=(1, 1), bias=False)
        (bn1): SyncBatchNorm(256, eps=1e-05, momentum=0.1, affine=True, track_running_stats=True)
        (conv2): Conv2d(256, 256, kernel_size=(3, 3), stride=(1, 1), padding=(1, 1), bias=False)
        (bn2): SyncBatchNorm(256, eps=1e-05, momentum=0.1, affine=True, track_running_stats=True)
        (conv3): Conv2d(256, 1024, kernel_size=(1, 1), stride=(1, 1), bias=False)
        (bn3): SyncBatchNorm(1024, eps=1e-05, momentum=0.1, affine=True, track_running_stats=True)
        (relu): ReLU(inplace=True)
      )
      (2): Bottleneck(
        (conv1): Conv2d(1024, 256, kernel_size=(1, 1), stride=(1, 1), bias=False)
        (bn1): SyncBatchNorm(256, eps=1e-05, momentum=0.1, affine=True, track_running_stats=True)
        (conv2): Conv2d(256, 256, kernel_size=(3, 3), stride=(1, 1), padding=(1, 1), bias=False)
        (bn2): SyncBatchNorm(256, eps=1e-05, momentum=0.1, affine=True, track_running_stats=True)
        (conv3): Conv2d(256, 1024, kernel_size=(1, 1), stride=(1, 1), bias=False)
        (bn3): SyncBatchNorm(1024, eps=1e-05, momentum=0.1, affine=True, track_running_stats=True)
        (relu): ReLU(inplace=True)
      )
      (3): Bottleneck(
        (conv1): Conv2d(1024, 256, kernel_size=(1, 1), stride=(1, 1), bias=False)
        (bn1): SyncBatchNorm(256, eps=1e-05, momentum=0.1, affine=True, track_running_stats=True)
        (conv2): Conv2d(256, 256, kernel_size=(3, 3), stride=(1, 1), padding=(1, 1), bias=False)
        (bn2): SyncBatchNorm(256, eps=1e-05, momentum=0.1, affine=True, track_running_stats=True)
        (conv3): Conv2d(256, 1024, kernel_size=(1, 1), stride=(1, 1), bias=False)
        (bn3): SyncBatchNorm(1024, eps=1e-05, momentum=0.1, affine=True, track_running_stats=True)
        (relu): ReLU(inplace=True)
      )
      (4): Bottleneck(
        (conv1): Conv2d(1024, 256, kernel_size=(1, 1), stride=(1, 1), bias=False)
        (bn1): SyncBatchNorm(256, eps=1e-05, momentum=0.1, affine=True, track_running_stats=True)
        (conv2): Conv2d(256, 256, kernel_size=(3, 3), stride=(1, 1), padding=(1, 1), bias=False)
        (bn2): SyncBatchNorm(256, eps=1e-05, momentum=0.1, affine=True, track_running_stats=True)
        (conv3): Conv2d(256, 1024, kernel_size=(1, 1), stride=(1, 1), bias=False)
        (bn3): SyncBatchNorm(1024, eps=1e-05, momentum=0.1, affine=True, track_running_stats=True)
        (relu): ReLU(inplace=True)
      )
      (5): Bottleneck(
        (conv1): Conv2d(1024, 256, kernel_size=(1, 1), stride=(1, 1), bias=False)
        (bn1): SyncBatchNorm(256, eps=1e-05, momentum=0.1, affine=True, track_running_stats=True)
        (conv2): Conv2d(256, 256, kernel_size=(3, 3), stride=(1, 1), padding=(1, 1), bias=False)
        (bn2): SyncBatchNorm(256, eps=1e-05, momentum=0.1, affine=True, track_running_stats=True)
        (conv3): Conv2d(256, 1024, kernel_size=(1, 1), stride=(1, 1), bias=False)
        (bn3): SyncBatchNorm(1024, eps=1e-05, momentum=0.1, affine=True, track_running_stats=True)
        (relu): ReLU(inplace=True)
      )
    )
    (layer4): ResLayer(
      (0): Bottleneck(
        (conv1): Conv2d(1024, 512, kernel_size=(1, 1), stride=(1, 1), bias=False)
        (bn1): SyncBatchNorm(512, eps=1e-05, momentum=0.1, affine=True, track_running_stats=True)
        (conv2): Conv2d(512, 512, kernel_size=(3, 3), stride=(2, 2), padding=(1, 1), bias=False)
        (bn2): SyncBatchNorm(512, eps=1e-05, momentum=0.1, affine=True, track_running_stats=True)
        (conv3): Conv2d(512, 2048, kernel_size=(1, 1), stride=(1, 1), bias=False)
        (bn3): SyncBatchNorm(2048, eps=1e-05, momentum=0.1, affine=True, track_running_stats=True)
        (relu): ReLU(inplace=True)
        (downsample): Sequential(
          (0): Conv2d(1024, 2048, kernel_size=(1, 1), stride=(2, 2), bias=False)
          (1): SyncBatchNorm(2048, eps=1e-05, momentum=0.1, affine=True, track_running_stats=True)
        )
      )
      (1): Bottleneck(
        (conv1): Conv2d(2048, 512, kernel_size=(1, 1), stride=(1, 1), bias=False)
        (bn1): SyncBatchNorm(512, eps=1e-05, momentum=0.1, affine=True, track_running_stats=True)
        (conv2): Conv2d(512, 512, kernel_size=(3, 3), stride=(1, 1), padding=(1, 1), bias=False)
        (bn2): SyncBatchNorm(512, eps=1e-05, momentum=0.1, affine=True, track_running_stats=True)
        (conv3): Conv2d(512, 2048, kernel_size=(1, 1), stride=(1, 1), bias=False)
        (bn3): SyncBatchNorm(2048, eps=1e-05, momentum=0.1, affine=True, track_running_stats=True)
        (relu): ReLU(inplace=True)
      )
      (2): Bottleneck(
        (conv1): Conv2d(2048, 512, kernel_size=(1, 1), stride=(1, 1), bias=False)
        (bn1): SyncBatchNorm(512, eps=1e-05, momentum=0.1, affine=True, track_running_stats=True)
        (conv2): Conv2d(512, 512, kernel_size=(3, 3), stride=(1, 1), padding=(1, 1), bias=False)
        (bn2): SyncBatchNorm(512, eps=1e-05, momentum=0.1, affine=True, track_running_stats=True)
        (conv3): Conv2d(512, 2048, kernel_size=(1, 1), stride=(1, 1), bias=False)
        (bn3): SyncBatchNorm(2048, eps=1e-05, momentum=0.1, affine=True, track_running_stats=True)
        (relu): ReLU(inplace=True)
      )
    )
  )
  init_cfg={'type': 'Pretrained', 'checkpoint': 'ckpts/resnet50-0676ba61.pth'}
  (img_neck): SECONDFPN(
    (deblocks): ModuleList(
      (0): Sequential(
        (0): Conv2d(256, 128, kernel_size=(4, 4), stride=(4, 4), bias=False)
        (1): SyncBatchNorm(128, eps=0.001, momentum=0.01, affine=True, track_running_stats=True)
        (2): ReLU(inplace=True)
      )
      (1): Sequential(
        (0): Conv2d(512, 128, kernel_size=(2, 2), stride=(2, 2), bias=False)
        (1): SyncBatchNorm(128, eps=0.001, momentum=0.01, affine=True, track_running_stats=True)
        (2): ReLU(inplace=True)
      )
      (2): Sequential(
        (0): ConvTranspose2d(1024, 128, kernel_size=(1, 1), stride=(1, 1), bias=False)
        (1): SyncBatchNorm(128, eps=0.001, momentum=0.01, affine=True, track_running_stats=True)
        (2): ReLU(inplace=True)
      )
      (3): Sequential(
        (0): ConvTranspose2d(2048, 128, kernel_size=(2, 2), stride=(2, 2), bias=False)
        (1): SyncBatchNorm(128, eps=0.001, momentum=0.01, affine=True, track_running_stats=True)
        (2): ReLU(inplace=True)
      )
    )
  )
  init_cfg=[{'type': 'Kaiming', 'layer': 'ConvTranspose2d'}, {'type': 'Constant', 'layer': 'NaiveSyncBatchNorm2d', 'val': 1.0}]
  (img_view_transformer): ViewTransformerLiftSplatShootVoxel(
    (depth_net): DepthNet(
      (reduce_conv): Sequential(
        (0): Conv2d(512, 512, kernel_size=(3, 3), stride=(1, 1), padding=(1, 1))
        (1): SyncBatchNorm(512, eps=1e-05, momentum=0.1, affine=True, track_running_stats=True)
        (2): ReLU(inplace=True)
      )
      (context_conv): Conv2d(512, 128, kernel_size=(1, 1), stride=(1, 1))
      (bn): SyncBatchNorm(27, eps=1e-05, momentum=0.1, affine=True, track_running_stats=True)
      (depth_mlp): Mlp(
        (fc1): Linear(in_features=27, out_features=512, bias=True)
        (act): ReLU()
        (drop1): Dropout(p=0.0, inplace=False)
        (fc2): Linear(in_features=512, out_features=512, bias=True)
        (drop2): Dropout(p=0.0, inplace=False)
      )
      (depth_se): SELayer(
        (conv_reduce): Conv2d(512, 512, kernel_size=(1, 1), stride=(1, 1))
        (act1): ReLU()
        (conv_expand): Conv2d(512, 512, kernel_size=(1, 1), stride=(1, 1))
        (gate): Sigmoid()
      )
      (context_mlp): Mlp(
        (fc1): Linear(in_features=27, out_features=512, bias=True)
        (act): ReLU()
        (drop1): Dropout(p=0.0, inplace=False)
        (fc2): Linear(in_features=512, out_features=512, bias=True)
        (drop2): Dropout(p=0.0, inplace=False)
      )
      (context_se): SELayer(
        (conv_reduce): Conv2d(512, 512, kernel_size=(1, 1), stride=(1, 1))
        (act1): ReLU()
        (conv_expand): Conv2d(512, 512, kernel_size=(1, 1), stride=(1, 1))
        (gate): Sigmoid()
      )
      (depth_conv): Sequential(
        (0): BasicBlock(
          (conv1): Conv2d(512, 512, kernel_size=(3, 3), stride=(1, 1), padding=(1, 1), bias=False)
          (bn1): SyncBatchNorm(512, eps=1e-05, momentum=0.1, affine=True, track_running_stats=True)
          (conv2): Conv2d(512, 512, kernel_size=(3, 3), stride=(1, 1), padding=(1, 1), bias=False)
          (bn2): SyncBatchNorm(512, eps=1e-05, momentum=0.1, affine=True, track_running_stats=True)
          (relu): ReLU(inplace=True)
        )
        (1): BasicBlock(
          (conv1): Conv2d(512, 512, kernel_size=(3, 3), stride=(1, 1), padding=(1, 1), bias=False)
          (bn1): SyncBatchNorm(512, eps=1e-05, momentum=0.1, affine=True, track_running_stats=True)
          (conv2): Conv2d(512, 512, kernel_size=(3, 3), stride=(1, 1), padding=(1, 1), bias=False)
          (bn2): SyncBatchNorm(512, eps=1e-05, momentum=0.1, affine=True, track_running_stats=True)
          (relu): ReLU(inplace=True)
        )
        (2): BasicBlock(
          (conv1): Conv2d(512, 512, kernel_size=(3, 3), stride=(1, 1), padding=(1, 1), bias=False)
          (bn1): SyncBatchNorm(512, eps=1e-05, momentum=0.1, affine=True, track_running_stats=True)
          (conv2): Conv2d(512, 512, kernel_size=(3, 3), stride=(1, 1), padding=(1, 1), bias=False)
          (bn2): SyncBatchNorm(512, eps=1e-05, momentum=0.1, affine=True, track_running_stats=True)
          (relu): ReLU(inplace=True)
        )
        (3): ASPP(
          (aspp1): _ASPPModule(
            (atrous_conv): Conv2d(512, 512, kernel_size=(1, 1), stride=(1, 1), bias=False)
            (bn): SyncBatchNorm(512, eps=1e-05, momentum=0.1, affine=True, track_running_stats=True)
            (relu): ReLU()
          )
          (aspp2): _ASPPModule(
            (atrous_conv): Conv2d(512, 512, kernel_size=(3, 3), stride=(1, 1), padding=(6, 6), dilation=(6, 6), bias=False)
            (bn): SyncBatchNorm(512, eps=1e-05, momentum=0.1, affine=True, track_running_stats=True)
            (relu): ReLU()
          )
          (aspp3): _ASPPModule(
            (atrous_conv): Conv2d(512, 512, kernel_size=(3, 3), stride=(1, 1), padding=(12, 12), dilation=(12, 12), bias=False)
            (bn): SyncBatchNorm(512, eps=1e-05, momentum=0.1, affine=True, track_running_stats=True)
            (relu): ReLU()
          )
          (aspp4): _ASPPModule(
            (atrous_conv): Conv2d(512, 512, kernel_size=(3, 3), stride=(1, 1), padding=(18, 18), dilation=(18, 18), bias=False)
            (bn): SyncBatchNorm(512, eps=1e-05, momentum=0.1, affine=True, track_running_stats=True)
            (relu): ReLU()
          )
          (global_avg_pool): Sequential(
            (0): AdaptiveAvgPool2d(output_size=(1, 1))
            (1): Conv2d(512, 512, kernel_size=(1, 1), stride=(1, 1), bias=False)
            (2): SyncBatchNorm(512, eps=1e-05, momentum=0.1, affine=True, track_running_stats=True)
            (3): ReLU()
          )
          (conv1): Conv2d(2560, 512, kernel_size=(1, 1), stride=(1, 1), bias=False)
          (bn1): SyncBatchNorm(512, eps=1e-05, momentum=0.1, affine=True, track_running_stats=True)
          (relu): ReLU()
          (dropout): Dropout(p=0.5, inplace=False)
        )
        (4): DeformConv2dPack(in_channels=512,
        out_channels=512,
        kernel_size=(3, 3),
        stride=(1, 1),
        padding=(1, 1),
        dilation=(1, 1),
        groups=4,
        deform_groups=1,
        bias=False)
        (5): Conv2d(512, 112, kernel_size=(1, 1), stride=(1, 1))
      )
    )
  )
  (img_bev_encoder_backbone): SparseLatentDiffuser(
    (resBlock0): SparseBasicBlock(
      (net): SparseSequential(
        (0): SubMConv3d(128, 128, kernel_size=[3, 3, 3], stride=[1, 1, 1], padding=[1, 1, 1], dilation=[1, 1, 1], output_padding=[0, 0, 0], bias=False, algo=ConvAlgo.MaskImplicitGemm)
        (1): SyncBatchNorm(128, eps=1e-05, momentum=0.1, affine=True, track_running_stats=True)
…
